LDAE/models/disease_classifier.ckpt (torch, 4770 bytes, 1 tensors)

weight f4 [1, 768]
-0.647179 0.26087022 -0.026622185 -0.029541275 -0.075616896 -0.15964927 0.21779059 -0.2740237
-0.20252657 -0.08569988 0.031639647 0.20331444 -0.07927553 0.05160024 -0.022885693 -0.008355404
-0.15521362 0.16874112 -0.050497446 0.011968708 0.039600827 -0.08599756 0.014904992 -0.014219074
0.084853396 -0.04717881 -0.39241156 0.09896285 0.024117745 -0.14174303 -0.06406777 0.051130906
-0.010184051 -0.028491758 0.31010702 0.020273367 -0.20423837 -0.13569784 0.037141055 0.044896036
0.056820914 0.20184463 0.07050946 0.06308217 0.023334851 -0.09933875 -0.46012118 0.24341384
0.03183079 -0.097473025 -0.0004493134 0.0066627436 0.088779405 0.16716537 0.08903483 -0.05852595
-0.013874051 -0.017630104 0.6746356 -0.074181505 0.051213525 -0.16019894 0.033395346 0.18537362
-0.032537464 -0.047445633 -0.07822736 0.18018132 0.024171928 -0.18135834 0.011775966 -0.15877353
0.110848784 -0.07873263 -0.09121467 0.011687536 -0.060296822 0.110701464 0.12686355 0.35257924
0.28491864 -0.40057394 0.035637833 0.09232967 -0.076528095 -0.05298043 -0.20271395 3.5160483e-06
-0.04998103 -0.11368453 -0.16436286 0.16824284 -0.0319162 0.22594273 -0.08502907 0.05443581
0.0019699926 0.14154404 0.034329716 0.030558111 -0.1767648 0.046202656 0.029660981 -0.05040636
-0.038159482 0.040542167 0.024315622 -0.108224705 -0.13816997 -0.018013736 0.3808263 -0.20976014
0.03267778 0.0031545714 -0.14821115 0.06163897 0.048523787 -0.18623294 -0.1538403 0.015715485
-0.04564044 -0.12043444 -0.23847911 -0.07478708 -0.28774408 -0.16446637 -0.09642652 -0.25082418
0.012359063 0.104741074 -0.2529396 -0.32235593 0.09840058 0.016649006 -0.014588527 -0.19565605
0.20062765 -0.30111566 0.065265 0.056658637 -0.23319028 -0.01342712 -0.085333064 -0.08410191
0.07043354 0.15154158 0.19553955 0.024166761 0.03388109 -0.022250015 -0.022155307 0.15780757
-0.022726059 0.20761427 0.005663173 -0.37315094 -0.03463525 0.082495764 -0.023508402 0.23225951
0.15647732 0.10847963 0.18436942 0.1691418 0.048546307 0.0313442 0.20112646 0.15979359
0.025670975 -0.066304274 -0.23410495 -0.07179475 -0.112185 -0.02229221 -0.13651164 0.036849845
0.10214851 0.106895566 -0.01797448 0.042616904 0.07264866 0.113420784 0.17947476 -0.014903483
-0.06739004 0.24741593 0.015877893 0.21538472 -0.08930726 0.011066014 -0.45523724 0.04364429
0.046880096 -0.090994164 -0.043086786 0.31065336 -0.28148448 0.14975698 0.18614563 -0.12777694
0.08748386 0.008731245 0.061353665 0.062750466 0.21421625 -0.014599354 0.054393042 -0.08427114
-0.007690282 0.004213941 0.1957239 -0.09913083 -0.18718871 0.039431304 -0.033161398 -0.016020844
0.08783255 -0.03001989 0.07141074 0.010206318 0.08903225 -0.21364118 0.038306907 0.027452862
-0.061084863 0.005198291 -0.17311516 0.16865093 0.10703812 -0.08594628 0.09817666 -0.119162686
0.24007203 0.06553247 0.09719296 0.064376056 -0.0830192 0.023469247 0.078424506 -0.118388094
0.015650705 -0.019356253 -0.022574319 -0.03684763 -0.09395135 0.15794635 -0.023018112 -0.3173848
-0.18484925 -0.20530967 -0.038233113 -0.12682407 -0.13799682 -0.04242856 -0.06178097 -0.07386057
00000000: 86ad 25bf c890 853e c516 dabc 8b00 f2bc
00000010: 08dd 9abd 197b 23be 7f04 5f3e d64c 8cbe
00000020: 2063 4fbe 6b83 afbd 9398 013d a931 503e
00000030: 365b a2bd c65a 533d c77a bbbc 1be5 08bc
00000040: 52f0 1ebe 79ca 2c3e 69d6 4ebd 6618 443c
00000050: 7a34 223d 7d1f b0bd 1134 743c 1ef7 68bc
00000060: 9ec7 ad3d 913e 41bd 2bea c8be 09ad ca3d
00000070: 9492 c53c 1625 11be f735 83bd a46e 513d
00000080: 01db 26bc 8c67 e9bc 59c6 9e3e 5514 a63c
00000090: dd23 51be 60f4 0abe 3821 183d e8e4 373d
000000a0: 0cbd 683d 5cb0 4e3e 4467 903d 3a31 813d
000000b0: bb28 bf3c 1d72 cbbd 0195 ebbe 7a41 793e
000000c0: 0161 023d f09f c7bd d391 ebb9 2553 da3b
000000d0: fad1 b53d 662d 2b3e e557 b63d e8b8 6fbd
000000e0: fd4f 63bc 026d 90bc ebb4 2c3f 79ec 97bd
000000f0: 46c5 513d 310b 24be 8fc9 083d 95d2 3d3e
00000100: 0146 05bd 5a56 42bd ab35 a0bd 7481 383e
00000110: 3504 c63c 00b6 39be fbef 403c 8795 22be
00000120: b004 e33d 933e a1bd c2ce babd 147d 3f3c
00000130: cdf9 76bd 73b7 e23d 85e8 013e 4485 b43e
00000140: dbe0 913e 0718 cdbe faf8 113d 5717 bd3d
00000150: c3ba 9cbd 0202 59bd 3f94 4fbe 40f5 6b36
00000160: e9b8 4cbd 6fd3 e8bd bd4e 28be da47 2c3e
00000170: 90ba 02bd 885d 673e b923 aebd 15f8 5e3d
00000180: fe1a 013b ecf0 103e 519d 0c3d 0155 fa3c
00000190: d501 35be ff3e 3d3d 96fb f23c e676 4ebd
000001a0: 1e4d 1cbd 8b0f 263d 8e31 c73c eaa4 ddbd
000001b0: 6e7c 0dbe 8b91 93bc aafb c23e 5dcb 56be
000001c0: 23d9 053d edbc 4e3b aac4 17be 2579 7c3d
000001d0: e1c0 463d d9b3 3ebe 5088 1dbe c3bd 803c
000001e0: 78f1 3abd 55a6 f6bd de33 74be f829 99bd
000001f0: 3153 93be df69 28be 447b c5bd 076c 80be
00000200: ab7d 4a3c 7d82 d63d 4d81 81be d60b a5be
00000210: 3e86 c93d 7f63 883c b804 6fbc 0f5a 48be
00000220: 5671 4d3e d52b 9abe a8a9 853d e312 683d
00000230: 6fc9 6ebe 6cfd 5bbc 1ac3 aebd 9f3d acbd
00000240: 763f 903d b72d 1b3e 853b 483e 5ff9 c53c
00000250: e6c6 0a3d aa45 b6bc 0c7f b5bc 4f98 213e
00000260: 002c babc d698 543e 2392 b93b a40d bfbe
00000270: b1dd 0dbd 8af3 a83d b194 c0bc 70d5 6d3e
00000280: 973b 203e 912a de3d 56cb 3c3e 8233 2d3e
00000290: 7ed8 463d c762 003d 18f4 4d3e eea0 233e
000002a0: f04b d23c 89ca 87bd 35b9 6fbe 2009 93bd
000002b0: 40c1 e5bd 279e b6bc b5c9 0bbe ddef 163d
000002c0: 3d33 d13d 10ec da3d 373f 93bc 108f 2e3d
000002d0: d2c8 943d 2849 e83d 3bc8 373e bd2d 74bc
000002e0: ca03 8abd 9a5a 7d3e 5b12 823c d08d 5c3e
000002f0: bae6 b6bd 3a4e 353c db14 e9be 5bc4 323d
00000300: 5805 403d 265b babd c57b 30bd f50d 9f3e
00000310: bc1e 90be e559 193e f69c 3e3e f5d7 02be
00000320: bd2a b33d 7f0d 0f3c fb4d 7b3d 5183 803d
00000330: 815b 5b3e 2132 6fbc 3dcb 5e3d 5996 acbd
00000340: c3fe fbbb 1915 8a3b d96b 483e 1b05 cbbd
00000350: 66ae 3fbe b882 213d 3fd4 07bd 253e 83bc
00000360: 8de1 b33d 46ec f5bc cb3f 923d 6738 273c
00000370: 8a56 b63d c1c4 5abe b4e7 1c3d d3e4 e03c
00000380: 1f34 7abd 6d56 aa3b 1a45 31be d4b2 2c3e
00000390: cd36 db3d 9a04 b0bd d810 c93d 910b f4bd
000003a0: 71d5 753e e335 863d 1a0d c73d 98d7 833d
000003b0: f805 aabd 9442 c03c 079d a03d 7575 f2bd
000003c0: e835 803c 0191 9ebc c7ed b8bc 8aed 16bd
000003d0: 9169 c0bd b0bc 213e 7b90 bcbc 4380 a2be
000003e0: 1f49 3dbe b33c 52be 539a 1cbd 2bde 01be
000003f0: 0a4f 0dbe 92c9 2dbd 0b0e 7dbd 3644 97bd
